model.pth (torch, 254009 bytes, 121 tensors)

module.feature_extraction.encoder1.0.weight f4 [8, 1, 3, 3]
0	0xbe1f24c5	-0.1554137
1	0xbe27c691	-0.16384341
2	0xbcdc9f0a	-0.026931304
3	0x3e272564	0.16322857
4	0xbe33d219	-0.17560615
5	0x3dc76f78	0.09738058
6	0x3e07ec88	0.13273823
7	0xbe5546c0	-0.2082777
8	0xbc8cc538	-0.017183885
9	0x3e97ff7a	0.296871
10	0xbd718112	-0.05896098
11	0x3e28247a	0.16420165
12	0x3e148c28	0.1450659
13	0xbe246795	-0.16055138
14	0xbde110c4	-0.10989526
15	0x3d6908c3	0.05689312
16	0xbe04f9aa	-0.12985864
17	0x3ce43227	0.027855946
18	0xbd224875	-0.03961988
19	0xbe864b97	-0.26229545
20	0x3e00bf3a	0.12572947
21	0x3c86ab7c	0.016439192
22	0x3abbfe53	0.0014342762
23	0x3e5fc9d8	0.21854341
24	0x3cb8af3f	0.022544501
25	0x3c881dce	0.016615774
26	0xbdc4540b	-0.095863424
27	0xbda4b128	-0.080416024
28	0xbc8893bf	-0.016672013
29	0xb940aa22	-0.00018373926
30	0x3ea0f289	0.3143504
31	0x3d2e54c8	0.042561322
32	0xbc99f0fb	-0.018791666
33	0x3d0b5867	0.034019854
34	0xbe940c68	-0.28915715
35	0x3ca77dbd	0.020445699
36	0xbcc3c7ed	-0.023899043
37	0xbd9cf266	-0.07663421
38	0xbd9609d4	-0.07326093
39	0xbcac0339	-0.02099763
40	0x3e450a7e	0.19242284
41	0x3db98738	0.09058994
42	0x3cb30d07	0.021856798
43	0x3e7a739c	0.24458164
44	0x3d8e1d59	0.06939191
45	0x3d30bf3f	0.043151136
46	0xbe2fa995	-0.17154534
47	0x3d99968e	0.07499419
48	0x3e17c9ce	0.14823076
49	0xbef5b0ec	-0.47986543
50	0x3cd863e9	0.026414828
51	0xbde9e3ec	-0.11420426
52	0xbe1e3f69	-0.15453877
53	0x3df04f37	0.11733859
54	0x3deca29d	0.115544535
55	0xbd8ea90a	-0.069658354
56	0x3ead52e5	0.33852306
57	0x3e12ab72	0.14323214
58	0xbf2ecadf	-0.68278307
59	0xbe8dc35e	-0.27688116
60	0xbc8b511f	-0.017006455
61	0x3e81c6d8	0.25347018
62	0x3e269692	0.16268376
63	0x3ca4d169	0.020119386
64	0xbbbbff70	-0.0057372376
65	0x3cd483b3	0.025941705
66	0xbbc6a11a	-0.0060616853
67	0xbce8468c	-0.028353952
68	0xbc934ce2	-0.017980997
69	0x3cba7781	0.022762062
70	0xba58af7e	-0.00082658965
71	0x3c804147	0.015656127

module.feature_extraction.encoder1.0.bias f4 [8]
0	0xbde19093	-0.110139035
1	0x3de19134	0.110140234
2	0xbc00e4aa	-0.007867018
3	0x3c00e481	0.00786698
4	0xbb9621f0	-0.0045816824
5	0x3b962c4f	0.0045829187
6	0xbc978efc	-0.018500797
7	0x3c978f4c	0.018500946

module.feature_extraction.encoder2.0.channel_adj.weight f4 [16, 8, 1, 1]
0	0xbd70ff6a	-0.05883733
1	0xbf0eb24b	-0.55740803
2	0x3ed835ef	0.42228648
3	0x3e2ab658	0.16671121
4	0x3e1fad17	0.15593372
5	0xbd0de4c8	-0.03464201
6	0x3e11dbb5	0.14243968
7	0x3e52f7b6	0.20602307
8	0xbe52e7f5	-0.20596297
9	0xbe8399b8	-0.25703216
10	0x3e19193e	0.14951035
11	0xbf052eb5	-0.52024394
12	0x3da744a0	0.08167386
13	0xbe5c820a	-0.21533981
14	0xbd6508d8	-0.055916637
15	0x3e4d3e4b	0.20043294
16	0x3f3bc961	0.73354155
17	0x3e3f0e39	0.1865777
18	0xbe6b57b0	-0.22982669
19	0xbe1f61e1	-0.15564682
20	0x3e384f37	0.17998968
21	0x3eefd100	0.46839142
22	0xbc51e590	-0.01281108
23	0x3e5aaa9d	0.21354146
24	0x3dc62593	0.096751355
25	0xbcf05f91	-0.029342445
26	0x3e9a0041	0.3007832
27	0xbe29ce63	-0.16582637
28	0xbe618007	-0.22021495
29	0x3d4c543d	0.049885023
30	0x3e4cafc1	0.1998892
31	0xbeccaf7f	-0.39977643
32	0x3f653d7c	0.8954694
33	0x3efdac17	0.49545357
34	0x3e903202	0.28163153
35	0x3d9f5866	0.077805325
36	0xbe85c70b	-0.2612842
37	0x3e3f645a	0.18690625
38	0x3d7fe438	0.062473506
39	0x3dbb73d1	0.091529496
40	0x3e58b286	0.21161851
41	0x3e9cdf9b	0.30639347
42	0xbf5a1be0	-0.85198784
43	0xbd66dfc6	-0.05636575
44	0xbe5a259f	-0.21303414
45	0xbd2c3738	-0.04204485
46	0xbd7750ce	-0.060379796
47	0x3e12397e	0.14279744
48	0xbd589c08	-0.052883178
49	0xbc704856	-0.014665684
50	0xbe548bf1	-0.20756508
51	0x3f25844a	0.6465498
52	0x3d489709	0.048972163
53	0xbe048026	-0.1293951
54	0x3e599f2b	0.21252124
55	0xbdbb387b	-0.09141632
56	0x3f2f53fb	0.6848752
57	0xbee5520c	-0.4478916
58	0x3e5a45ca	0.21315685
59	0xbccb9dfd	-0.024855608
60	0xbf1b0010	-0.6054697
61	0xbe5c4fc9	-0.2151481
62	0xbf48f007	-0.7849125
63	0xbf338aef	-0.7013387
64	0xbe498d13	-0.19682722
65	0xbdc5b31e	-0.096533045
66	0x3dc23acc	0.09483871
67	0xbe85fc9d	-0.2616929
68	0x3d989503	0.07450297
69	0xbe822792	-0.25420815
70	0x3b76840c	0.0037615327
71	0xbe504fd1	-0.20342948
72	0x3d29ffde	0.04150378
73	0xbe7588c8	-0.23977959
74	0x3e9d6fb4	0.30749285
75	0x3e020139	0.12695779
76	0xbd3550d7	-0.044266548
77	0xbe4b2069	-0.19836582
78	0x3d7669d8	0.060159534
79	0xbe0fbf0c	-0.14037722
80	0xbec27de2	-0.37986666
81	0xbe4f8ed5	-0.2026933
82	0xbdbf1c54	-0.09331575
83	0xbeb32a52	-0.34993225
84	0xbcd9c574	-0.02658341
85	0xbd8b5811	-0.06803907
86	0xbc7e17a9	-0.015508571
87	0x3e57d0a4	0.21075684
88	0xbe03576d	-0.12826319
89	0xbec4cd0e	-0.38437694
90	0x3aa7c1e3	0.0012798872
91	0x3c4baea5	0.012431775
92	0xbf1d23c6	-0.6138271
93	0x3d23d6f5	0.03999992
94	0x3d916adf	0.07100462
95	0xbe1560e0	-0.14587736
96	0xbd7ebe0d	-0.062192965
97	0xbecb4643	-0.39702043
98	0x3dea977d	0.11454675
99	0xbda5a52b	-0.08088144
100	0x3e11d2b8	0.14240539
101	0x3e9b8a4f	0.3037896
102	0x3ee44ce8	0.44589925
103	0xbee549c8	-0.44782853
104	0xbd3e7b96	-0.04650458
105	0xbde39c47	-0.11113792
106	0xbe63e216	-0.22254214
107	0x3e6c6213	0.23084287
108	0xbeb5ff8a	-0.35546523
109	0xbe17fefd	-0.14843364
110	0xbee3f996	-0.44526356
111	0x3efef02b	0.4979261
112	0x3d1191e4	0.035539523
113	0xbed0f7af	-0.40813968
114	0xbec935e7	-0.39298937
115	0xbe2cbcaf	-0.16868852
116	0x3e996f88	0.29967904
117	0x3e5f6d9d	0.21819158
118	0xbea00ce0	-0.31259823
119	0xbf083e5b	-0.53220147
120	0x3e04c2d7	0.1296495
121	0x3e790184	0.24316984
122	0x3f3c7590	0.73616886
123	0x3d06cee5	0.032912154
124	0xbebc6055	-0.36792246
125	0x3e035e85	0.12829025
126	0xbe124e55	-0.14287694
127	0xbdc538c4	-0.09629968

module.feature_extraction.encoder2.0.channel_adj.bias f4 [16]
0	0xbdb09823	-0.08622768
1	0x3e5a4d27	0.21318494
2	0xbd978ff9	-0.074005075
3	0xbe59740a	-0.21235672
4	0xbdbcc140	-0.09216547
5	0x3d845af6	0.06462662
6	0x3c7030c0	0.01466006
7	0xbde67c22	-0.11254145
8	0x3d49dda0	0.049283624
9	0xbe9156d2	-0.2838655
10	0x3e212965	0.15738447
11	0x3ed76192	0.42066628
12	0xbe391e8c	-0.18078059
13	0xbe709fc7	-0.2349845
14	0xbd7f50c6	-0.06233289
15	0xbd6cbffa	-0.05780027

module.feature_extraction.encoder2.0.dwconv_hw.weight f4 [2, 1, 3, 3]
0	0xbe5b3692	-0.21407536
1	0xbde5e6f7	-0.11225694
2	0xbe378b29	-0.17924179
3	0xbc4b23ee	-0.012398703
4	0x3f171a46	0.59024465
5	0xbe20c1a9	-0.15698875
6	0xbd55a393	-0.05215795
7	0xbb032e84	-0.002001674
8	0xbdcabafa	-0.09898944
9	0xbe51237c	-0.20423692
10	0x3c8df7bb	0.017330041
11	0xbd91ca1d	-0.07118628
12	0xbdeba2ae	-0.11505638
13	0x3e12a536	0.14320835
14	0x3d323f3b	0.043517333
15	0xbe6c4ee1	-0.23076965
16	0x3e92b2c2	0.28652006
17	0x3e2180cb	0.15771787

module.feature_extraction.encoder2.0.dwconv_hw.bias f4 [2]
0	0xbcb5fa32	-0.022214029
1	0x3dc6875c	0.096937865

module.feature_extraction.encoder2.0.dwconv_w.weight f4 [2, 1, 1, 11]
0	0x3c66eb2e	0.014094157
1	0xbd917d2d	-0.071039535
2	0xbe0d7e28	-0.13817656
3	0xbe767a3a	-0.24070063
4	0xbec628dc	-0.38703048
5	0xbe960e04	-0.29307568
6	0xbe8b0682	-0.27153403
7	0xbe43354d	-0.19063301
8	0xbd9f2f61	-0.07772709
9	0xbd349521	-0.044087533
10	0xbcd1a3dc	-0.02559083
11	0xbd3a66d5	-0.045508225
12	0xbe22b0cf	-0.1588776
13	0xbe708a93	-0.23490362
14	0xbe606bc9	-0.21916117
15	0x3ca35621	0.01993853
16	0xbca78670	-0.020449847
17	0xbe29a873	-0.16568165
18	0xbeafb9e0	-0.343215
19	0xbeb03661	-0.34416488
20	0xbe5fb11b	-0.21844904
21	0xbcd888d8	-0.02643244

module.feature_extraction.encoder2.0.dwconv_w.bias f4 [2]
0	0x3e5ffc69	0.2187363
1	0xbd884540	-0.066538334

module.feature_extraction.encoder2.0.dwconv_h.weight f4 [2, 1, 11, 1]
0	0x3ec22000	0.3791504
1	0xbdfd1fac	-0.123595566
2	0x3f04a09e	0.5180758
3	0xbcfaf4fc	-0.030634396
4	0xbba0d7dc	-0.004908545
5	0x3e803c83	0.25046167
6	0x3e493606	0.19649515
7	0x3f0aa9c9	0.5416532
8	0x3e80f34a	0.25185615
9	0x3e0a0abf	0.13480662
10	0xbdc7167f	-0.09721088
11	0x3d72c6bd	0.059271563
12	0x3db838f1	0.08995236
13	0x3e819b00	0.25313568
14	0x3ea47aae	0.32124847
15	0x3e4417d9	0.19149722
16	0x3eda5c3d	0.42648497
17	0x3f07f30a	0.53105223
18	0x3e7013af	0.23445009
19	0x3ec8f49f	0.3924913
20	0x3de7eb94	0.1132423
21	0x3daf9c58	0.08574742

module.feature_extraction.encoder2.0.dwconv_h.bias f4 [2]
0	0xbd6bf929	-0.057610665
1	0xbd533ba6	-0.051570557

module.feature_extraction.encoder3.0.channel_adj.weight f4 [24, 16, 1, 1]
0	0xbccbd84c	-0.024883412
1	0x3d39637e	0.0452609
2	0xbd755235	-0.05989285
3	0xbc70d893	-0.014700073
4	0xbe1a35d7	-0.15059601
5	0xbbd2d842	-0.0064344713
6	0x3e8f397a	0.2797354
7	0x3db86fcd	0.09005699
8	0xbde53a49	-0.11192758
9	0xbde44194	-0.111453205
10	0x3e7db427	0.24775754
11	0xbe94de1e	-0.29075712
12	0xbe9aa0d9	-0.30200842
13	0x3e79ff45	0.24413784
14	0xbd827a32	-0.06370963
15	0x3e9ab4b9	0.30216005
16	0xbd8af896	-0.06785695
17	0x3e2cbf6e	0.168699
18	0xbddc31fa	-0.1075172
19	0xbebbc7f7	-0.36676
20	0xbd8e0bb4	-0.06935826
21	0x3d697ccc	0.05700378
22	0xbec94ffe	-0.39318842
23	0xbe184e77	-0.14873682
24	0xbe405b24	-0.18784767
25	0xbd3e34ae	-0.046436958
26	0xbea35663	-0.31901845
27	0x3df69559	0.120402046
28	0x3e864120	0.2622156
29	0x3eaced9d	0.33775035
30	0xbee156a1	-0.44011405
31	0x3e3ad699	0.18245925
32	0xbd72f379	-0.059314225
33	0xbe61eb77	-0.22062479
34	0xbec04354	-0.37551367
35	0xbea342e6	-0.31886977
36	0xbe207dcc	-0.15672988
37	0xbe4a6087	-0.19763385
38	0x3d9d7f8b	0.076903425
39	0xbe1d33c0	-0.15351772
40	0xbc00673d	-0.007837114
41	0x3cb821f2	0.022477124
42	0x3e278699	0.16359939
43	0x3e887dfa	0.26658612
44	0x3dbea397	0.09308546
45	0xbddd61ca	-0.108096674
46	0xbdbbfbda	-0.09178896
47	0xbe332937	-0.17496191
48	0xbe495a6f	-0.19663404
49	0x3eca8fcd	0.39562836
50	0x3c792ac9	0.015207955
51	0x3e441c2c	0.19151372
52	0x3ce03eed	0.027373755
53	0x3e48bbed	0.19602938
54	0x3df1c3c4	0.118049175
55	0xbe662d84	-0.224783
56	0x3efc0049	0.49218968
57	0x3d289189	0.04115442
58	0x3e02dd8d	0.12779827
59	0xbde4c0b9	-0.111695714
60	0xbd8b10fa	-0.067903474
61	0x3d04c5dc	0.032415256
62	0x3eac0327	0.33596155
63	0x3e88e324	0.26735795
64	0xbeee4a0b	-0.46540865
65	0x3e6dd1c3	0.23224549
66	0x3cde76b1	0.027156206
67	0x3b0da28c	0.0021611778
68	0xbeccd6e2	-0.40007693
69	0x3e2bacf9	0.16765203
70	0xbe99ae08	-0.30015588
71	0x3cc575f1	0.02410409
72	0x3d2b6af2	0.041850038
73	0x3e85a5bb	0.26103005
74	0xbe47e0a3	-0.19519286
75	0x3e0f2bb8	0.13981521
76	0xbdabbf73	-0.083861254
77	0x3ec1ffaa	0.3789037
78	0x3d610219	0.05493364
79	0x3e24a4ae	0.16078445
80	0xbeaf3752	-0.34221894
81	0x3e2b1aa1	0.16709377
82	0x3e09c357	0.13453422
83	0xbe30bc31	-0.1725929
84	0xbed88638	-0.422899
85	0xbe41a124	-0.18909127
86	0xbdc8b85c	-0.09800789
87	0x3def18a1	0.116746195
88	0xbe65c017	-0.22436558
89	0x3eaa49c8	0.33259416
90	0xbe5bec69	-0.21476902
91	0x3eb8113e	0.35950655
92	0x3e65fdaf	0.22460054
93	0xbe1e04cb	-0.15431516
94	0xbe2fde3d	-0.17174621
95	0xbe938e4d	-0.28819504
96	0x3e06a2e3	0.13148074
97	0x3c5537a4	0.013013754
98	0x3eb4033f	0.35158727
99	0xbe6dc260	-0.2321868
100	0xbe8698a3	-0.26288328
101	0xbe80dc6b	-0.25168166
102	0xbee8abfe	-0.4544372
103	0x3d223626	0.03960242
104	0x3db7fa7c	0.08983323
105	0xbd6be5d3	-0.057592224
106	0x3df611fc	0.12015149
107	0x3d5b0730	0.05347365
108	0x3ebaf6e1	0.3651648
109	0xbcec4abe	-0.028844234
110	0xbed58f19	-0.41710737
111	0xbd47be8c	-0.048765704
112	0xbd3f3ad6	-0.04668697
113	0xbe301f99	-0.17199554
114	0xbe454bd6	-0.1926721
115	0x3e391c5c	0.18077224
116	0xbdad23cc	-0.08454093
117	0x3f276422	0.65387166
118	0x3cd93692	0.026515279
119	0xbe5bf104	-0.21478659
120	0x3e850e9c	0.2598771
121	0x3d298232	0.04138393
122	0x3c1839de	0.00929114
123	0x3f00dcf9	0.5033718
124	0x3d9581e6	0.07300167
125	0x3df4bcd3	0.11950078
126	0xbe803352	-0.25039154
127	0xbd0ca99d	-0.034341443
128	0x3ead2abf	0.33821675
129	0x3e6f0a0e	0.2334368
130	0x3e66d152	0.22540787
131	0xbdcdaae5	-0.10042361
132	0xbe75106e	-0.23932049
133	0x3ef24769	0.47320107
134	0xbe11d0bc	-0.14239782
135	0x3e3d0572	0.18459108
136	0xbe5d8c3e	-0.2163553
137	0xbe22eefc	-0.15911478
138	0xbe0ee691	-0.13955142
139	0xbe89bdef	-0.2690272
140	0x3e6660cc	0.22497863
141	0x3cc89359	0.024484323
142	0x3d6b0c10	0.05738455
143	0x3dbcbf96	0.092162296
144	0x3dec3abd	0.11534641
145	0x38355c31	4.3239623e-05
146	0xbee15328	-0.44008756
147	0xbd0a75e9	-0.033803854
148	0xbe1a1a3c	-0.1504907
149	0xbd0a0088	-0.033691913
150	0x3d76f151	0.06028873
151	0x3e9129b8	0.2835214
152	0xbda09086	-0.07840066
153	0xbe1d8c15	-0.15385468
154	0xbdb4baab	-0.088246666
155	0xbead31e7	-0.33827135
156	0x3ea681b2	0.32520825
157	0xbe80161d	-0.2501687
158	0x3d255a15	0.040369112
159	0xbe5ee08c	-0.21765345
160	0xbe64975a	-0.22323361
161	0xbf04e4ad	-0.5191143
162	0xbe9b1875	-0.30292097
163	0xbe8abbf4	-0.27096522
164	0x3eb4d8c4	0.3532163
165	0x3ddc29dc	0.107501715
166	0x3cbbe101	0.022934439
167	0xbeed30e2	-0.46326357
168	0x3e72e169	0.237188
169	0xbd9a598a	-0.075366095
170	0x3e953dba	0.29148656
171	0x3e8bdf36	0.27318734
172	0x3ea3c297	0.31984398
173	0xbd446eb5	-0.04795714
174	0x3cf70b18	0.030156657
175	0xbe6171e8	-0.22016108
176	0x3ef0e99e	0.47053236
177	0x3c1366c0	0.0089966655
178	0xbe25d64a	-0.16195026
179	0xbe17f69f	-0.14840172
180	0x3d3051cd	0.04304676
181	0xbe3dea89	-0.185465
182	0x3d38771b	0.045035463
183	0xbe50ca70	-0.20389724
184	0xbf02dad5	-0.5111516
185	0xbec2f3dc	-0.38076675
186	0x3de222b9	0.11041779
187	0xbeb04855	-0.34430185
188	0xbd479a01	-0.048730854
189	0xbef485ae	-0.4775824
190	0xbeac87e5	-0.3369743
191	0xbcf4e35c	-0.02989357
192	0x3d458765	0.048224825
193	0x3e1dbf7b	0.15405075
194	0x3e98406b	0.29736647
195	0xbc3efa78	-0.011656396
196	0xbbd56f01	-0.006513477
197	0xbdfcb34b	-0.12338885
198	0xbdb73993	-0.08946528
199	0x3e0b1994	0.13583976
200	0x3d1dec81	0.038555626
201	0x3e0692ec	0.13141984
202	0xbe96f527	-0.2948391
203	0xbe0330b8	-0.12811553
204	0x3e1c6029	0.15271057
205	0xbdc10dbb	-0.09426447
206	0x3d1dbb67	0.0385088
207	0xbd83a87c	-0.0642862
208	0x3e787d2c	0.242665
209	0x3ec6488f	0.38727233
210	0x3e986607	0.2976534
211	0x3da2ffab	0.07958921
212	0xbea5f934	-0.3241669
213	0xbdc17c43	-0.09447529
214	0xbe05bbe9	-0.13059963
215	0xbe3ae717	-0.18252216
216	0xbed200fd	-0.4101638
217	0xbd98a29f	-0.074528925
218	0xbc2aa209	-0.010414609
219	0xbe9c0bec	-0.30477846
220	0x3e14427b	0.14478485
221	0x3dd776a2	0.10520674
222	0xbcb446cd	-0.022006417
223	0xbdb88add	-0.09010861
224	0x3df18011	0.11792005
225	0xbb0ad034	-0.0021181228
226	0xbe24d6ef	-0.16097616
227	0xbd8636b7	-0.06553405
228	0x3de736da	0.11289759
229	0x3e96a186	0.29420108
230	0x3e7753e5	0.24153097
231	0xbdd98cdf	-0.10622572
232	0x3eace119	0.33765486
233	0xbe4a1070	-0.19732833
234	0x3e6751be	0.22589776
235	0xbec00134	-0.37500918
236	0xbe415813	-0.18881254
237	0x3dc78420	0.09741998
238	0x3e478257	0.19483314
239	0x3dc29ba9	0.09502346
240	0x3de60581	0.112315185
241	0x3e055821	0.130219
242	0x3e3f999c	0.18710941
243	0xbe3393e6	-0.17536888
244	0x3d9fc13f	0.07800531
245	0xbe83f7ce	-0.25774997
246	0x3d1081fa	0.035280205
247	0x3e11f334	0.14252931
248	0xbe9236fb	-0.28557572
249	0x3dcb3c50	0.09923613
250	0xbd9db196	-0.076998875
251	0xbdadbc3e	-0.0848317
252	0x3e2633ab	0.16230647
253	0xbdf91715	-0.12162606
254	0x3e3e4025	0.18579157
255	0x3d870487	0.065926604

module.feature_extraction.encoder3.0.channel_adj.bias f4 [24]
0	0xbdff92bf	-0.124791615
1	0x3dd9b335	0.10629884
2	0x3db99025	0.090606965
3	0xbe07d57d	-0.13265033
4	0x3dca5db6	0.09881155
5	0x3db82693	0.089917324
6	0x3c97413c	0.018463723
7	0x3b9c5356	0.0047706766
8	0xbcb69242	-0.022286538
9	0x3d6e7cfe	0.05822467
10	0xbb1692c6	-0.0022975667
11	0x3c781c9b	0.015143539
12	0x3bedcdd2	0.0072572017
13	0xbc43f9a9	-0.011961379
14	0xbe37b929	-0.17941727
15	0x3be01023	0.006837861
16	0xbd0c9c0e	-0.034328513
17	0x3ea4ad4d	0.32163468
18	0x3bee7ed2	0.0072783018
19	0x3e1be51e	0.1522412
20	0x3e36c312	0.17847851
21	0x3e1ed4a7	0.15510808
22	0xbc9b1636	-0.01893149
23	0x3df2cecf	0.11855852

module.feature_extraction.encoder3.0.dwconv_hw.weight f4 [3, 1, 3, 3]
0	0x3e12b756	0.1432775
1	0x3e822cfe	0.2542495
2	0x3d197aff	0.037470814
3	0xbdea1e59	-0.114315696
4	0xbe48eb53	-0.19621019
5	0x3e3a3ac4	0.1818648
6	0x3dc80085	0.09765724
7	0x3d849b54	0.06474939
8	0xbda09da9	-0.07842571
9	0x3d10d5f7	0.035360303
10	0x3eb0b815	0.34515443
11	0xbcf76bf6	-0.030202847
12	0xbe7f9c55	-0.2496198
13	0xbda1c6fb	-0.07899281
14	0xbef526f9	-0.47881296
15	0x3d2fbcc7	0.04290464
16	0x3eb09bb2	0.34493786
17	0xbd82307f	-0.06356906
18	0xbdbaa089	-0.09112651
19	0x3ecca2de	0.39968008
20	0xbe00291f	-0.12515686
21	0xbe73e813	-0.23818998
22	0x3e60faf9	0.21970738
23	0xbc0c8f36	-0.008579066
24	0xbe47cb54	-0.19511157
25	0x3ee5bf6e	0.44872612
26	0xbecc8fca	-0.39953452

module.feature_extraction.encoder3.0.dwconv_hw.bias f4 [3]
0	0x3d821c58	0.063530624
1	0x3d14e2f6	0.03634926
2	0xbbb65899	-0.005564761

module.feature_extraction.encoder3.0.dwconv_w.weight f4 [3, 1, 1, 11]
0	0xbe4ec2a4	-0.20191437
1	0xbe0f3608	-0.13985455
2	0xbea1908f	-0.31555602
3	0xbe84c174	-0.25928843
4	0xbe054a69	-0.13016666
5	0xbe005735	-0.12533267
6	0x3c8b21b3	0.016983842
7	0xbbd398f3	-0.006457442
8	0x3d0655b8	0.03279659
9	0x3d35c460	0.04437673
10	0x3de21e02	0.1104088
11	0x3c0e8b59	0.008700215
12	0x3c4391ed	0.011936647
13	0x3d2edb7d	0.04268979
14	0xbe05ebd5	-0.13078244
15	0x3e185fec	0.14880341
16	0x3d80b81a	0.062851146
17	0xbf171cd4	-0.59028363
18	0xbe89b2ac	-0.26894128
19	0xbdc0e8fe	-0.0941944
20	0x3dba3bb9	0.090934224
21	0x3cc9f179	0.024651276
22	0x3daf7c5c	0.085686415
23	0xbd861d76	-0.06548588
24	0x3e4281f0	0.1899488
25	0x3d5742e1	0.052554015
26	0xbf3aa277	-0.7290415
27	0x3e965867	0.2936432
28	0x3eb37144	0.35047352
29	0xbe235613	-0.15950803
30	0xbe121cd8	-0.14268816
31	0x3e6482ce	0.22315523
32	0xbb85e7f5	-0.0040864893

module.feature_extraction.encoder3.0.dwconv_w.bias f4 [3]
0	0xbc3cf7c6	-0.011533683
1	0xbd66ee0f	-0.056379374
2	0x3a65b02a	0.0008761907

module.feature_extraction.encoder3.0.dwconv_h.weight f4 [3, 1, 11, 1]
0	0x3debd71b	0.115156375
1	0x3dd37e63	0.10326841
2	0x3d1b8c3d	0.03797554
3	0xbee1cf61	-0.4410353
4	0x3e94818a	0.2900508
5	0xbe66e615	-0.22548707
6	0xbe75741c	-0.23970073
7	0x3e2bc058	0.16772592
8	0x3df41bb7	0.11919349
9	0xbcf6f2ed	-0.030145133
10	0x3cb3064a	0.021853585
11	0xbdbe3086	-0.09286599
12	0x3e21fb41	0.15818502
13	0x3e391f5d	0.1807837
14	0xbcb8c2b5	-0.022553781
15	0xbe3b2edd	-0.18279596
16	0x3df003f8	0.11719507
17	0xbea2637f	-0.31716534
18	0xbe3cd975	-0.18442328
19	0xbd845c9f	-0.064629786
20	0x3e381b5b	0.17979185
21	0x3d6aa2b5	0.057284076
22	0x3d2ce253	0.042208027
23	0x3d60eab9	0.05491135
24	0x3d51badb	0.05120359
25	0x3e1a2943	0.15054803
26	0xbf21c01d	-0.63183767
27	0xbd3b0649	-0.04566029
28	0xbd3ff1a3	-0.046861302
29	0x3d141d1a	0.036160566
30	0x3d172fa0	0.036910653
31	0x3c070871	0.008241759
32	0x3c427a34	0.011869956

module.feature_extraction.encoder3.0.dwconv_h.bias f4 [3]
0	0xbda89864	-0.08232191
1	0x3e05fe0a	0.1308519
2	0xbcc61f61	-0.024184885

module.feature_extraction.encoder4.0.channel_adj.weight f4 [32, 24, 1, 1]
0	0x3c21b1ce	0.009869052
1	0x3eeab174	0.4583851
2	0xbda7cf0e	-0.081937894
3	0xbc3f07a9	-0.011659541
4	0x3e9ed744	0.3102361
5	0x3de18063	0.11010816
6	0xbdab2c47	-0.083580546
7	0x3df58c09	0.119896
8	0xbe4deeab	-0.20110576
9	0xbe11f44e	-0.14253351
10	0xbe06a0b6	-0.13147244
11	0xbeb66adc	-0.35628402
12	0xbeaf0d0d	-0.34189644
13	0x3e79008f	0.2431662
14	0xbd874aab	-0.06606039
15	0xbd90f790	-0.07078469
16	0x3d2f5881	0.042809013
17	0x3cc8b545	0.024500499
18	0x3d8a18e3	0.06743028
19	0xbe1b947a	-0.15193358
20	0xbd88bb38	-0.06676334
21	0x3a32fc63	0.00068277697
22	0xbdc8fc7e	-0.09813784
23	0xbcde1e4d	-0.027114058
24	0xbea8446e	-0.32864708
25	0x3e938f17	0.28820106
26	0xbe48affd	-0.19598384
27	0x3e9f81ce	0.3115372
28	0x3de6e066	0.11273269
29	0xbeba344f	-0.36368033
30	0x3f175eef	0.5912923
31	0xbe2ba4b3	-0.16762047
32	0x3e71afb2	0.23602179
33	0x3ddd5da7	0.108088784
34	0xbe033b6f	-0.12815641
35	0x3e16f781	0.14742853
36	0xbd792276	-0.06082388
37	0x3e99b3e8	0.3002007
38	0xbdb8f03a	-0.090301946
39	0x3da20274	0.07910624
40	0xbc25191e	-0.010076789
41	0xbbc12c7a	-0.0058951946
42	0x3c8f8b0c	0.017522357
43	0xbe0fb26f	-0.14032911
44	0xbb8d3031	-0.0043087234
45	0x3cb1699a	0.0216568
46	0xbdd760cc	-0.105165094
47	0xbd212e38	-0.03935072
48	0xbe9e8c26	-0.309663
49	0xbea9a728	-0.33135343
50	0xbe2ef1c3	-0.17084412
51	0x3eb45078	0.35217643
52	0xbe739bd1	-0.23789908
53	0xbe548d41	-0.20757009
54	0xbed1636b	-0.40896162
55	0xbc9e0816	-0.019290965
56	0x3de5d535	0.11222307
57	0x3d77bf7e	0.060485356
58	0x3d99b608	0.07505423
59	0x3c6c08ef	0.014406427
60	0xbcbb1171	-0.022835465
61	0x3ea7be33	0.32762298
62	0x3da125ec	0.07868561
63	0xbea6c6df	-0.32573602
64	0x3d63176e	0.055442266
65	0x3dce11f9	0.10062022
66	0xbb74ed69	-0.0037372953
67	0xbc16cf66	-0.009204721
68	0x3dd73038	0.10507244
69	0x3da76470	0.08173454
70	0xbd48a9b9	-0.048989985
71	0xbd11e41a	-0.035617925
72	0x3e8f8af0	0.28035688
73	0xbd06aabf	-0.03287768
74	0x3c722a73	0.0147806285
75	0xbe17f92e	-0.14841148
76	0xbce625fd	-0.028094286
77	0x3e655d21	0.22398807
78	0x3e1eff7e	0.1552715
79	0xbf33bca5	-0.70209724
80	0xbe995866	-0.29950255
81	0x3dbab36c	0.09116253
82	0x3e622897	0.22085796
83	0x3ed8c13a	0.4233492
84	0x3e0a615c	0.13513702
85	0xbe4eb67e	-0.20186803
86	0xbeb4f00c	-0.3533939
87	0xbc7d0806	-0.0154438075
88	0xbdaa62bf	-0.083196156
89	0x3de86d68	0.113489926
90	0xbe08e8ce	-0.13370058
91	0x3e1f919c	0.1558289
92	0x3c8608ba	0.016361583
93	0x3b536803	0.003225804
94	0x3dd13085	0.102143325
95	0x3e2ffd68	0.1718651
96	0xbe86d590	-0.2633481
97	0x3ec4bb87	0.38424322
98	0xbe850cef	-0.2598643
99	0xbcda36dd	-0.026637489
100	0x3ec22ddd	0.37925616
101	0x3e825e2b	0.2546247
102	0xbce123b3	-0.027482843
103	0xbd3ec81b	-0.046577554
104	0x3e68c0e3	0.2272983
105	0xbd561877	-0.052269425
106	0x3e3399b2	0.17539099
107	0xbe6623c8	-0.22474587
108	0xbe0b65ee	-0.13613102
109	0xbe0237a8	-0.12716544
110	0x3ded348d	0.11582289
111	0xbeadc435	-0.33938757
112	0xbb365e5d	-0.002782724
113	0xbdc96848	-0.09834343
114	0x3e832d20	0.25620365
115	0xbe2edd22	-0.17076543
116	0x3e059d20	0.1304822
117	0xbccce7b1	-0.025012823
118	0xbe388d84	-0.18022734
119	0xbd857cb6	-0.06517927
120	0xbd4e2aa7	-0.050333645
121	0xbb50f0ca	-0.0031881803
122	0xbeb31349	-0.3497565
123	0xbeaa2ea6	-0.33238715
124	0xbd013c8b	-0.03155188
125	0x3edfd5c5	0.4371778
126	0xbd3ecd49	-0.046582494
127	0xbe3c4928	-0.18387282
128	0x3e9e41b9	0.30909517
129	0xbdcb1ae7	-0.099172406
130	0xbe527bc0	-0.2055502
131	0xbd82a3dd	-0.06378911
132	0xbda76e6b	-0.081753574
133	0xbe6888cd	-0.22708435
134	0x3e121c9e	0.14268729
135	0xbda7e189	-0.08197314
136	0xbe1fb0ad	-0.1559474
137	0x3d30e166	0.043183707
138	0x3e44a610	0.19203973
139	0x3dd1b207	0.10239034
140	0xbe40ae22	-0.18816426
141	0xbe32b6a1	-0.1745248
142	0xbd31a610	-0.04337126
143	0x3e1d340b	0.15351884
144	0x3ee9376c	0.45550096
145	0xbe7a5eb4	-0.24450189
146	0xbbecede5	-0.0072305077
147	0xbc64cdb6	-0.013965061
148	0xbeb4d2b6	-0.3531701
149	0xbe85259b	-0.26005253
150	0xbee72eff	-0.45153043
151	0xbd1d9ce0	-0.038479686
152	0x3e92a3af	0.28640506
153	0xbe8847bf	-0.26617238
154	0xbea8ed38	-0.32993484
155	0x3e31e0ee	0.1737096
156	0x3d6ca7cb	0.057777207
157	0x3db29f7a	0.08721824
158	0xbe2e564b	-0.17025106
159	0xbd9c3a44	-0.07628301
160	0x3db263c0	0.08710432
161	0x3e220097	0.15820538
162	0x3eda5905	0.42646042
163	0xbe696bec	-0.22795075
164	0xbe6b840d	-0.22999592
165	0xbccc2bab	-0.024923166
166	0xbe3953c6	-0.18098363
167	0x3e60d86b	0.21957557
168	0xbefb5775	-0.49090162
169	0xbce348e8	-0.027744725
170	0x3e2d002e	0.168946
171	0xbe9c361f	-0.3051004
172	0x3e88ceb0	0.2672019
173	0x3d8fd730	0.07023466
174	0x3e5d5645	0.2161494
175	0xbe6ef6a2	-0.2333627
176	0xbe552259	-0.20813884
177	0xbe974f85	-0.29552856
178	0xbe4a70f3	-0.19769649
179	0xbd54c800	-0.051948547
180	0x3df261fd	0.11835096
181	0x3db43368	0.087988675
182	0x3d55d50a	0.052205123
183	0x3d61089d	0.054939855
184	0xbe2cf5e3	-0.16890673
185	0xbece7f9d	-0.40331736
186	0xbe215402	-0.15754703
187	0xbf18a0fc	-0.5962064
188	0xbb2bb9b7	-0.0026203224
189	0xbda82493	-0.08210101
190	0x3e2b78ed	0.16745348
191	0xbc38ed99	-0.011287116
192	0x3ec60531	0.38675836
193	0xbef411e0	-0.47669888
194	0x3e720eb8	0.23638427
195	0xbd6276e3	-0.05528916
196	0xbd863863	-0.06553724
197	0x3e483bba	0.19554034
198	0xbe4e42c9	-0.20142664
199	0xbdce7456	-0.10080783
200	0xbdd3dd06	-0.10344891
201	0x3e2c53e9	0.16828884
202	0x3e43eaa5	0.19132479
203	0x3e8380a7	0.2568409
204	0xbdcf81a8	-0.10132152
205	0x3edad424	0.42739975
206	0xbe9cdd7b	-0.30637726
207	0xbeb1525f	-0.34633157
208	0x3e4412e1	0.19147827
209	0x3e60d1e5	0.21955068
210	0xbd311206	-0.04323008
211	0x3ea7ab4c	0.32747877
212	0x3c792958	0.015207611
213	0xbc09b743	-0.008405509
214	0x3d1bfcaa	0.038082756
215	0x3db2c3ed	0.08728776
216	0xbdd5c0e9	-0.10437185
217	0xbdd35ad2	-0.10320057
218	0xbe229520	-0.15877199
219	0x3c2cdaf3	0.010550248
220	0xbcf9712c	-0.030449472
221	0xbe203ddc	-0.15648597
222	0xbe6b83ed	-0.22999544
223	0xbe43d17b	-0.19122879
224	0xbdc28db9	-0.09499688
225	0x3d8b4b51	0.06801475
226	0xbd490c69	-0.0490841
227	0x3c82f7d7	0.01598732
228	0x3e5febe0	0.21867323
229	0xbdeffa96	-0.11717717
230	0x3e08b9d9	0.13352145
231	0xbecdfa16	-0.40229863
232	0x3dbd10af	0.09231698
233	0xbb48053f	-0.0030520705
234	0xbd41ef9f	-0.04734766
235	0x3e54267f	0.2071781
236	0x3a0ca577	0.00053652324
237	0xbcf3b442	-0.02974904
238	0xbd9e16b9	-0.07719178
239	0x3dd989f2	0.10622014
240	0x3e84a67f	0.25908276
241	0x3ea1ff17	0.3163993
242	0xbf22ec61	-0.63641936
243	0x3d112ac5	0.03544118
244	0x3e823cbb	0.2543696
245	0x3e32136c	0.17390221
246	0x3f02813d	0.5097845
247	0xbe628782	-0.22122005
248	0x3e5e0aed	0.21683855
249	0x3e664750	0.22488141
250	0xbe578710	-0.21047616
251	0x3e395799	0.18099822
252	0xbbee209a	-0.00726707
253	0x3d5c76cf	0.053824242
254	0xbd8d8836	-0.06910746
255	0x3e28e8d2	0.16495064

module.feature_extraction.encoder4.0.channel_adj.bias f4 [32]
0	0xbc17fce0	-0.009276599
1	0xbd8fdcce	-0.07024537
2	0xbddc23a6	-0.10748987
3	0xbd1c08ac	-0.038094208
4	0x3d7dbbbe	0.061946623
5	0xbdb5885f	-0.08863901
6	0xbd73e6ff	-0.059546467
7	0x3e069b31	0.13145138
8	0xbdd9424a	-0.10608347
9	0xbdc9240a	-0.09821327
10	0xbe39fe3a	-0.18163386
11	0x3d0f018f	0.034913596
12	0xbddf84b5	-0.10913984
13	0x3e607b3f	0.21922015
14	0x3ddf629e	0.109074816
15	0xbe3cb391	-0.18427874
16	0xbd58e970	-0.052957
17	0xbd7ad0fc	-0.06123446
18	0xbd9112ef	-0.070836894
19	0xbd92f18e	-0.07174979
20	0x3a6a35ca	0.0008934407
21	0xbd77cf33	-0.060500335
22	0xbe0eec0f	-0.13957237
23	0xbd5ab85d	-0.05339848
24	0x3e1684b3	0.14699058
25	0xbd89baab	-0.06725057
26	0xbe19b02d	-0.15008612
27	0xbdbcb5d5	-0.09214369
28	0x3e15cdc4	0.14629275
29	0x3dc0c12f	0.09411847
30	0x3d097bb2	0.03356523
31	0x3d67cd9b	0.056592565

module.feature_extraction.encoder4.0.dwconv_hw.weight f4 [4, 1, 3, 3]
0	0x3dd6370b	0.10459717
1	0x3e0981d3	0.1342843
2	0x3d5eda44	0.054407373
3	0x3dc8c619	0.09803409
4	0x3e91b006	0.28454608
5	0x3e1e9f04	0.15490347
6	0x3e0595c8	0.13045418
7	0x3d8931f2	0.066989794
8	0x3e44477a	0.19167891
9	0xbde083b3	-0.1096262
10	0xbdc6204b	-0.09674128
11	0xbdb11cce	-0.08648072
12	0xbd7787a7	-0.060432103
13	0xbdc43e7b	-0.0958223
14	0xbdd95422	-0.1061175
15	0xbdbd0ca9	-0.0923093
16	0xbd5091a9	-0.050920162
17	0xbe351473	-0.17683582
18	0xbe30e4b1	-0.17274739
19	0xbe318651	-0.17336394
20	0xbe2a2d13	-0.16618757
21	0xbe6f6c9f	-0.2338128
22	0xbe8a444f	-0.2700524
23	0xbdd4a7d3	-0.103835724
24	0xbe14759b	-0.14497988
25	0xbe5da447	-0.21644698
26	0xbd8683f9	-0.065681405
27	0xbba9fbaf	-0.0051874737
28	0x3e38a59a	0.18031922
29	0xbe143b12	-0.14475659
30	0xbe92c9ea	-0.28669673
31	0xbec4d3fc	-0.3844298
32	0xbdb620f0	-0.08893001
33	0x3eb0ca1c	0.34529197
34	0x3e3ba0d4	0.1832307
35	0x3d7e6e03	0.062116634

module.feature_extraction.encoder4.0.dwconv_hw.bias f4 [4]
0	0x3d016f51	0.0316003
1	0x3c96c095	0.018402377
2	0x3e0ffeb1	0.14062001
3	0xbd502a77	-0.050821748

module.feature_extraction.encoder4.0.dwconv_w.weight f4 [4, 1, 1, 11]
0	0x3e2e672b	0.17031543
1	0xbdb34533	-0.08753433
2	0xbde91261	-0.113804586
3	0x3df236a7	0.1182683
4	0xbe5886f2	-0.21145228
5	0xbe90fd3f	-0.2831821
6	0x3c0aa8fe	0.008463142
7	0xbd25e052	-0.04049713
8	0xbcfae78b	-0.030627986
9	0xbe16863c	-0.14699644
10	0x3e5852ec	0.21125382
11	0x3c66890d	0.014070761
12	0x3d03846a	0.0321087
13	0xba98bdfe	-0.0011653302
14	0x3e5d281c	0.21597332
15	0x3e2acd2e	0.16679832
16	0x3e8d179e	0.2755708
17	0x3e9a5512	0.30143028
18	0x3daf5a2a	0.08562119
19	0x3cac866b	0.02106019
20	0x3c5a86c2	0.013337793
21	0x3c6959fb	0.014242644
22	0xbdb0ea6c	-0.086384624
23	0x3db0eefc	0.08639333
24	0xbe2c1ad0	-0.16807103
25	0x3d67dbf9	0.056606267
26	0x3ebce810	0.368958
27	0xbe5d90bf	-0.21637248
28	0xbeb2b9ef	-0.3490748
29	0x3e989736	0.29802865
30	0x3d34e25a	0.04416118
31	0xbc885c4a	-0.01664557
32	0xbdb7c133	-0.08972397
33	0xbcc1bf55	-0.023650805
34	0x3dc143b9	0.09436745
35	0x3e22cb5f	0.15897892
36	0x3d721bb8	0.059108466
37	0x3bfd79d7	0.0077354717
38	0xbeb9ca02	-0.36286932
39	0xbe8876bb	-0.26653084
40	0x3d1ef880	0.038811207
41	0x3e10aab4	0.14127618
42	0x3dcb8676	0.09937756
43	0x3d3dcda5	0.046338696

module.feature_extraction.encoder4.0.dwconv_w.bias f4 [4]
0	0xbd1aafea	-0.03776542
1	0xbdd437bb	-0.10362192
2	0xbe0ddbdd	-0.13853402
3	0xbdfa965a	-0.122357085

module.feature_extraction.encoder4.0.dwconv_h.weight f4 [4, 1, 11, 1]
0	0x3d17f0d2	0.0370949
1	0xbb56a13e	-0.0032749916
2	0x3ceb1486	0.02869631
3	0x3e16f244	0.14740855
4	0x3ed2ca2b	0.41169867
5	0x3dbe76e3	0.093000196
6	0x3ef1ad04	0.47202313
7	0x3dfe967a	0.12431045
8	0x3d589575	0.05287691
9	0xbb972841	-0.004612953
10	0x3c4c09f4	0.012453545
11	0xbe46f9d7	-0.19431244
12	0xbe2eba06	-0.1706315
13	0xbd3bd9e8	-0.04586211
14	0xbee9a7d3	-0.45635852
15	0xbecea82d	-0.40362683
16	0xbd97f4dc	-0.0741975
17	0x3dd2a940	0.10286188
18	0x3d55b04d	0.052170087
19	0xbe1a5492	-0.15071324
20	0xbc1b1015	-0.0094642835
21	0x3d6ab0ee	0.05729764
22	0x3e0f6c8c	0.14006251
23	0x3d5e52ad	0.054278065
24	0x3d3eb867	0.04656258
25	0x3e45202c	0.19250554
26	0x3ea07714	0.3134085
27	0xbc9d869b	-0.019229224
28	0x3ea08e8d	0.31358758
29	0x3e563a41	0.2092066
30	0x3e5a2608	0.2130357
31	0xbbe5074a	-0.0069893943
32	0x3e052d5c	0.13005584
33	0xbbd485cb	-0.006485676
34	0x3d9e7937	0.07737964
35	0x3e42a858	0.1900953
36	0x3e183f98	0.14868009
37	0x3e45d193	0.19318227
38	0xbdaf41ad	-0.085574485
39	0x3de8dc8b	0.1137019
40	0x3d371d35	0.04470559
41	0x3d8f04d8	0.06983346
42	0xbc9bb736	-0.01900826
43	0xbbf9121f	-0.007601037

module.feature_extraction.encoder4.0.dwconv_h.bias f4 [4]
0	0x3e23b633	0.15987472
1	0x3caad91f	0.020855485
2	0x3d01c109	0.031678233
3	0x3e00b432	0.12568739

module.feature_extraction.encoder5.0.channel_adj.weight f4 [48, 32, 1, 1]
0	0x3c3e6c71	0.011622534
1	0x3d954a21	0.072895296
2	0xbe7942e5	-0.24341924
3	0xbd0047a6	-0.03131833
4	0x3da88994	0.08229366
5	0xbe8b5ab3	-0.27217636
6	0x3e8b59c4	0.27216923
7	0xbee81073	-0.4532505
8	0x3e21d8ff	0.15805434
9	0xbd4f5d44	-0.050626054
10	0xbe354f09	-0.17705931
11	0x3f11c015	0.5693372
12	0xbe2384d1	-0.15968634
13	0xbe4cb710	-0.19991708
14	0x3e49ab3a	0.19694224
15	0x3e91a0d5	0.28443018
16	0xbcf20b2b	-0.02954634
17	0x3e701e06	0.23448953
18	0xbe9f012c	-0.31055582
19	0x3e9c265a	0.3049801
20	0xbe1d2b0c	-0.15348452
21	0xbe9e721b	-0.3094643
22	0xbe5a29ad	-0.2130496
23	0xbe36ebb8	-0.17863357
24	0x3cf4c3ba	0.029878486
25	0x3e747dc3	0.238761
26	0xbe8c4e7e	-0.27403635
27	0x3d110b84	0.035411373
28	0xbe8172fc	-0.2528304
29	0x3f2dd7fb	0.67907685
30	0xbd873ec0	-0.066037655
31	0xbd9b5e71	-0.07586373
32	0xbc327916	-0.010893127
33	0xbe815fb3	-0.25268325
34	0xbe9af874	-0.3026768
35	0x3db2d004	0.08731082
36	0x3ca653b6	0.020303588
37	0x3e291e75	0.16515525
38	0x3d76c455	0.06024583
39	0xbe31371a	-0.17306176
40	0x3d9e812a	0.0773948
41	0x3d7e074b	0.062018674
42	0xbe25556e	-0.1614587
43	0xbdf3aad3	-0.118978165
44	0xbdac8bc8	-0.08425099
45	0xbe98dc06	-0.29855365
46	0xbe729e7b	-0.23693268
47	0x3ccc6b4e	0.02495351
48	0x3d59d566	0.05318203
49	0x3d768df2	0.060193963
50	0xbea5ef5e	-0.32409185
51	0x3e0581c2	0.1303778
52	0xbe2ef58c	-0.17085856
53	0xbd000a7b	-0.031259995
54	0x3d9d88de	0.07692121
55	0x3da8bc91	0.08239091
56	0x3d24be58	0.04022059
57	0x3e136074	0.14392263
58	0x3eb180e6	0.34668654
59	0x3e28ad86	0.16472444
60	0xbe1ea60c	-0.1549303
61	0x3e74e1d1	0.23914267
62	0xbd0a5277	-0.03377005
63	0xbe03fb77	-0.12888895
64	0xbc3e563c	-0.01161724
65	0x3e5b17c8	0.2139579
66	0xbc9790af	-0.018501608
67	0xbd201698	-0.039084047
68	0xbeac3940	-0.33637428
69	0xbd21543e	-0.03938698
70	0xbd138024	-0.036010876
71	0x3e9875f9	0.29777506
72	0x3d22e8cd	0.039772797
73	0x3b6250d8	0.003453305
74	0x3e4abf5b	0.19799559
75	0x3cb84b1f	0.022496758
76	0xbe288796	-0.16457972
77	0xbd6bf525	-0.057606835
78	0x3e00fea9	0.12597145
79	0x3edbd046	0.42932338
80	0x3c2e4d75	0.010638584
81	0x3d855bd2	0.06511654
82	0xba88c424	-0.0010434431
83	0x3cd156fd	0.025554175
84	0xbcf7d3da	-0.030252386
85	0xbdba5114	-0.09097496
86	0xbe1044c2	-0.14088729
87	0xbdaf4b7b	-0.08559319
88	0xbcb5e0fe	-0.022202011
89	0x3ea895c0	0.3292675
90	0x3e89a186	0.26881045
91	0x3e7b89c1	0.24564268
92	0x3e5d3dc7	0.21605597
93	0x3da837eb	0.082137905
94	0xbead9e72	-0.33909947
95	0xbd0469ff	-0.03232765
96	0x3e2200dd	0.15820642
97	0x3e12462e	0.14284584
98	0xbe00210f	-0.12512611
99	0xbe4d250c	-0.20033664
100	0xbdbd739a	-0.09250565
101	0xbba9a56d	-0.005177191
102	0xbde29755	-0.110640205
103	0x3e86d378	0.26333213
104	0xbe336df5	-0.17522414
105	0x3c8d7b61	0.017270746
106	0x3dcf2ebb	0.10116335
107	0xbe87c84b	-0.2652
108	0xbddcba42	-0.10777713
109	0x3d233151	0.039841954
110	0x3ce8c5b6	0.028414588
111	0xbdc4c864	-0.09608534
112	0x3e877e06	0.26463336
113	0xbe08336c	-0.13300866
114	0x3dabdc2b	0.08391603
115	0x3d0bdb2e	0.034144573
116	0xbd451ff2	-0.04812617
117	0x3c77fae6	0.015135502
118	0x3d095ce5	0.033535857
119	0x3c961c93	0.018324172
120	0xbd8e5781	-0.06950284
121	0xbdc4a3a7	-0.09601527
122	0xbec3388a	-0.38129073
123	0xbc0fd6c6	-0.008779233
124	0x3e62974c	0.22128028
125	0x3eb88f9c	0.36047065
126	0x3e1b3846	0.15158185
127	0x3ef4d7cf	0.478209
128	0x3ef56d43	0.47934923
129	0x3ae008d2	0.0017092472
130	0x3dab9798	0.083785236
131	0xbefca77f	-0.4934654
132	0x3e6b5dc3	0.22984986
133	0xbc169b89	-0.009192356
134	0xbe33baf4	-0.17551786
135	0xbec63a06	-0.38716143
136	0xbd5cc32b	-0.053897064
137	0x3e02ea13	0.12784605
138	0xbdaaaaa3	-0.083333276
139	0xbd7cb68a	-0.06169752
140	0x3e184e2e	0.14873573
141	0xbead4b8b	-0.33846697
142	0xbd360b67	-0.044444468
143	0xbe20ae01	-0.15691377
144	0xbf0427f4	-0.51623464
145	0xbd50f59e	-0.05101549
146	0x3eb1459a	0.34623414
147	0x3c857c6a	0.016294677
148	0x3df92238	0.1216473
149	0x3d9dbfa3	0.077025674
150	0xbd163f39	-0.036681388
151	0x3e002055	0.12512334
152	0xbf03d718	-0.5150008
153	0xbdf08756	-0.11744563
154	0xbd8e3dc6	-0.06945376
155	0xbe34c958	-0.17654932
156	0xbe2c2268	-0.1681
157	0x3dcca0a6	0.09991579
158	0x3c07b405	0.008282666
159	0xbd295a4c	-0.04134588
160	0x3e1fdba8	0.15611136
161	0xbe333a7c	-0.17502779
162	0xbd6053e1	-0.054767493
163	0x3e956781	0.2918053
164	0x3e0822dd	0.1329455
165	0x3d508f3c	0.05091785
166	0x3c5f7f18	0.013641141
167	0xbd570b40	-0.052500963
168	0xbe8048f2	-0.25055653
169	0x3dbfe201	0.09369279
170	0x3de08887	0.109635405
171	0xbd632475	-0.05545469
172	0xbd1f9544	-0.03896071
173	0xbda41991	-0.08012689
174	0xbdefce7b	-0.11709305
175	0xbe4edd35	-0.20201571
176	0x3e82af53	0.25524387
177	0x3de8e0d1	0.11371005
178	0x3d1dad73	0.038495492
179	0x3d917c68	0.07103807
180	0xbe335076	-0.17511162
181	0x3d2ebf2a	0.042662777
182	0xbdef5ee4	-0.11688021
183	0x3c8dabf4	0.017293908
184	0xbe0ec093	-0.13940649
185	0x3e2f3373	0.1710947
186	0xbd9a9dd6	-0.07549636
187	0x3d93718a	0.0719939
188	0xbe5d4806	-0.21609506
189	0x3e40fb97	0.18845974
190	0x3d55d3dd	0.052204
191	0x3cdd0d8d	0.026984
192	0x3decd71e	0.11564468
193	0x3d0a48d6	0.033760868
194	0xbdcd2f86	-0.1001883
195	0xbd2637d7	-0.040580597
196	0x3d7cf4b2	0.061756797
197	0xbe58570d	-0.21126957
198	0xbdd34107	-0.10315137
199	0x3c8d7d00	0.017271519
200	0x3e384cf7	0.1799811
201	0xbd618f6f	-0.05506843
202	0xbe7d2eaa	-0.24724832
203	0xbdaabd04	-0.08336833
204	0x3e48c241	0.19605352
205	0xbcf62d1c	-0.030050807
206	0x3d945fae	0.07244812
207	0x3dfdbd67	0.12389641
208	0x3e049732	0.12948301
209	0xbc4541d9	-0.012039625
210	0xbe20aabc	-0.1569013
211	0xbd8e0b02	-0.06935693
212	0x3dbb707a	0.091523126
213	0x3debcaf6	0.11513321
214	0xbd7065b2	-0.058690734
215	0x3e065619	0.13118781
216	0x3d7f2468	0.06229058
217	0x3dd5cbf5	0.10439292
218	0x3e5bece2	0.21477082
219	0x3da87e71	0.08227242
220	0xbe2f4367	-0.17115556
221	0xbd95f879	-0.07322783
222	0xbe3e7729	-0.18600143
223	0xbde27638	-0.11057705
224	0xbe0f3935	-0.13986667
225	0x3e256671	0.1615236
226	0x3e926cb3	0.28598556
227	0x3deaa50e	0.11457263
228	0x3eab1aeb	0.33418974
229	0x3dd3ee36	0.103481695
230	0xbc74fc43	-0.014952722
231	0xbd950981	-0.07277203
232	0xbe02c666	-0.12770995
233	0xbcd6555c	-0.02616375
234	0xbe98dcd4	-0.29855978
235	0xbd4051bb	-0.046952944
236	0x39400ecd	0.0001831606
237	0xbe1435fb	-0.14473717
238	0x3d54f4f0	0.051991403
239	0x3d2a12f3	0.041521978
240	0x3ebed604	0.37272656
241	0xbe477d01	-0.19481279
242	0xbe1df48d	-0.1542532
243	0xbe3faa27	-0.18717252
244	0xbe8775eb	-0.26457152
245	0xbec7aff2	-0.39001423
246	0xbe4a160f	-0.19734977
247	0x3b05eaef	0.002043422
248	0xbd6f063a	-0.058355547
249	0x3d440229	0.047853623
250	0x3d16e01a	0.036834814
251	0x3e175d25	0.14781626
252	0xbe92ee3c	-0.28697383
253	0x3d1c84be	0.03821253
254	0x3e039c6c	0.12852639
255	0x3e036ec0	0.12835217

module.feature_extraction.encoder5.0.channel_adj.bias f4 [48]
0	0xbd8770c4	-0.06613305
1	0xbc9e1f06	-0.019301903
2	0xbda9d949	-0.08293397
3	0x3c9bf3e5	0.019037196
4	0x3d5cd86a	0.053917326
5	0xbbedfbb4	-0.0072626714
6	0xbda78531	-0.08179701
7	0xbd36b4e1	-0.044606093
8	0xbc2471a5	-0.010036861
9	0x3de76abc	0.11299655
10	0xbd72816a	-0.05920545
11	0x3dc43d55	0.09582011
12	0xbd0a1130	-0.033707798
13	0x3d0ff9cc	0.035150334
14	0x3c316ced	0.010829193
15	0x3da12132	0.0786766
16	0x3d36e09b	0.044647794
17	0xbd7d082f	-0.061775383
18	0xbcf2f64d	-0.029658461
19	0x3cf9d4a3	0.0304969
20	0xbd11c8a4	-0.035591736
21	0xbc93c61f	-0.018038807
22	0x3ba0fa16	0.004912625
23	0x3b5971e4	0.0033179456
24	0xbda2b96e	-0.07945524
25	0xb8918fcc	-6.940923e-05
26	0xbd65e4d9	-0.05612645
27	0xbccc572b	-0.024943909
28	0x3dd5eca0	0.10445523
29	0x3cbd3a1c	0.023098998
30	0xbc4d922f	-0.01254706
31	0xbd917325	-0.0710204
32	0xbdcf7151	-0.10129035
33	0xba3cad7b	-0.00071974815
34	0xbf1463f4	-0.57965016
35	0xbbef0457	-0.0072942185
36	0xbcb45328	-0.022012308
37	0x3d5250ae	0.051346473
38	0x3ce16412	0.027513538
39	0x3da7bb67	0.08190041
40	0x3d218bba	0.039439894
41	0x3d1441cd	0.036195565
42	0x3db1b6df	0.08677458
43	0xbda5c389	-0.08093936
44	0x3c5bdae7	0.01341889
45	0xbd6140b9	-0.054993365
46	0x3e361eb6	0.17785153
47	0xbe00bea7	-0.12572728

module.feature_extraction.encoder5.0.dwconv_hw.weight f4 [6, 1, 3, 3]
0	0xbd70aab4	-0.058756545
1	0xbc8e01ea	-0.017334897
2	0x3daba29b	0.08380624
3	0xbb9fe5bd	-0.004879682
4	0xbdd4496a	-0.10365565
5	0x3e8069b0	0.25080633
6	0x3d44da44	0.048059717
7	0x3db41a67	0.08794098
8	0x3e0954b7	0.13411222
9	0xbdac2fcf	-0.08407556
10	0xbd814674	-0.06312266
11	0xbe3e4339	-0.18580331
12	0xbe218688	-0.15773976
13	0xbe6b68ec	-0.22989243
14	0xbe597b08	-0.21238339
15	0xbbff1806	-0.0077848462
16	0xbd3cf97c	-0.046136364
17	0x3d037b68	0.03210011
18	0x3d6d44db	0.057926994
19	0xbd3c41c8	-0.04596117
20	0x3d18669c	0.03720723
21	0x3d6231b4	0.05522318
22	0xbdb76322	-0.08954455
23	0xbdebfd64	-0.1152294
24	0x3ed7ea75	0.42171064
25	0x3e060a1f	0.13089798
26	0x3d50b4c1	0.05095363
27	0x3ea4a248	0.3215506
28	0xbe2a5a07	-0.16635905
29	0xbe5c5e80	-0.21520424
30	0x3d731252	0.059343643
31	0xbd4eb05f	-0.05046117
32	0x3d9753ff	0.07389068
33	0xba13d5bb	-0.00056394533
34	0x3e0e6b9e	0.1390824
35	0x3ee46a88	0.44612527
36	0x3e4a4e76	0.19756493
37	0xbd5f1d80	-0.054471493
38	0x3e4611c4	0.19342715
39	0x3dcc40d4	0.099733025
40	0xbef119d4	-0.47090018
41	0x3dfe731f	0.12424301
42	0x3e5275ee	0.20552799
43	0xbe31b228	-0.17353117
44	0x3e8bb7ae	0.27288574
45	0x3e1157e1	0.1419368
46	0x3e0a6be2	0.13517717
47	0x3e21bd14	0.15794784
48	0x3ebd4cee	0.36972755
49	0x3e03ef6f	0.12884305
50	0xbb98b5a9	-0.0046603275
51	0x3c5094f9	0.01273083
52	0x3dfe0292	0.12402834
53	0xbd073916	-0.033013426

module.feature_extraction.encoder5.0.dwconv_hw.bias f4 [6]
0	0xbcc47dce	-0.02398577
1	0x3da131df	0.0787084
2	0x3d921787	0.07133394
3	0x3ba1da32	0.004939341
4	0x3cc7ebda	0.024404455
5	0xbc8d9e7b	-0.017287483

module.feature_extraction.encoder5.0.dwconv_w.weight f4 [6, 1, 1, 11]
0	0x3d464226	0.048402928
1	0x3c395e6f	0.011314019
2	0x3e65bcfd	0.22435375
3	0x3dc83a28	0.097767174
4	0x3d9aed20	0.07564759
5	0xbddb92b9	-0.107213445
6	0x3d056557	0.03256735
7	0x3e5302da	0.20606557
8	0x3e05133e	0.12995622
9	0x3e07310e	0.13202307
10	0x3bd789ff	0.0065777297
11	0xbe0bf521	-0.13667728
12	0xbcc7d0d6	-0.024391573
13	0x3e4789cb	0.19486158
14	0xbef76850	-0.48321772
15	0x3e232d6b	0.15935294
16	0x3ea3173a	0.31853658
17	0xbe640569	-0.22267689
18	0x3e339708	0.17538083
19	0xbeb06d3b	-0.34458336
20	0x3dc38732	0.09547271
21	0x3c87d699	0.01658182
22	0xbc7e1a5b	-0.015509213
23	0xba36e61c	-0.0006977038
24	0xbd237928	-0.039910465
25	0x3d0e6206	0.03476145
26	0xbd058a88	-0.032602817
27	0xbdcf5e9d	-0.10125468
28	0xbe8c08ec	-0.27350557
29	0xbe11a7b3	-0.14224128
30	0xbd73c375	-0.059512574
31	0xbdc4c9ff	-0.0960884
32	0xbdf65fe4	-0.120300084
33	0x3bf1a826	0.007374781
34	0xbd937e9d	-0.07201884
35	0xbd01102d	-0.031509567
36	0x3c353646	0.011060303
37	0xbe94c5dc	-0.29057205
38	0x3e3fa576	0.18715462
39	0x3e74a7b8	0.23892105
40	0xbdcb0120	-0.09912324
41	0xbdd98b4d	-0.10622273
42	0xbd6d0cb3	-0.05787344
43	0xbd5ccc5b	-0.053905826
44	0xbd842237	-0.064518385
45	0xbd03195f	-0.032006618
46	0xbe123b50	-0.14280438
47	0xbc9dc27f	-0.019257782
48	0xbe8e8329	-0.27834442
49	0xbe1c10a4	-0.15240723
50	0xbe696603	-0.2279282
51	0xbb519f64	-0.0031985873
52	0xbdfbe2fa	-0.12299152
53	0xbe297895	-0.16549905
54	0x3d4af578	0.049550503
55	0xbd5032a9	-0.050829563
56	0xbcf8040b	-0.030275365
57	0xbd093600	-0.033498764
58	0xbddd4297	-0.10803717
59	0xbe798f78	-0.24371135
60	0xbd949a4b	-0.072559915
61	0xbd9ce717	-0.076612644
62	0xbe1b1eff	-0.15148543
63	0xbd320770	-0.043464124
64	0xbd10bfaf	-0.035339054
65	0xbd8ec78b	-0.069716536

module.feature_extraction.encoder5.0.dwconv_w.bias f4 [6]
0	0x3bc5168b	0.00601465
1	0xbcfb55e6	-0.030680608
2	0x3dfefa97	0.1245014
3	0x3c923e5a	0.017851997
4	0xbda331ab	-0.07968458
5	0xbc3cdf04	-0.01152778

module.feature_extraction.encoder5.0.dwconv_h.weight f4 [6, 1, 11, 1]
0	0xbd9867aa	-0.07441647
1	0xbd1d0fe3	-0.03834523
2	0xbdf4981e	-0.119430766
3	0x3e47bf05	0.19506462
4	0xbc946410	-0.01811412
5	0xbdb39775	-0.087691225
6	0x3c0a54bb	0.008443053
7	0xbdcdce91	-0.10049165
8	0xbddebe32	-0.108761206
9	0xbd391105	-0.045182247
10	0xbcd36125	-0.025803158
11	0x3d031d0e	0.03201013
12	0xbe530226	-0.20606288
13	0xbdd90e90	-0.10598481
14	0xbe196b32	-0.14982298
15	0x3e14bde2	0.1452556
16	0x3e6f8b2f	0.23392938
17	0x3e3ac1e2	0.18238023
18	0xbe83224d	-0.25612107
19	0xbe039c97	-0.12852703
20	0xbcb98819	-0.022647904
21	0xbd732b2a	-0.059367336
22	0x3ae4a084	0.0017442857
23	0xbe09d221	-0.13459064
24	0xbdf0e1fa	-0.117618516
25	0xbc992729	-0.01869543
26	0x3e2aed6a	0.16692129
27	0x3ea477cc	0.32122648
28	0x3e3e4546	0.18581113
29	0xbdf65149	-0.12027223
30	0xbe1db24c	-0.15400046
31	0xbdb6f55f	-0.089335196
32	0xbcc7d339	-0.024392711
33	0x3c6e1d45	0.014533346
34	0x3baeeb84	0.0053381342
35	0x3cc8b41d	0.024499947
36	0xbda4eea2	-0.08053328
37	0xbe775ca9	-0.24156441
38	0xbea8068c	-0.32817495
39	0xbeae4ee7	-0.34044573
40	0x3cd06eb2	0.025443409
41	0x3b2dedb6	0.0026539392
42	0x3c5f5775	0.013631691
43	0x3c37d55e	0.011220304
44	0x3e3318f1	0.17489983
45	0xbdc5eb2c	-0.09663996
46	0x3cf478ad	0.029842699
47	0x3eab7692	0.334889
48	0x3ca1aa09	0.0197344
49	0xbf0e90c1	-0.55689627
50	0xbee827ba	-0.4534281
51	0xbd1b9b8a	-0.03799013
52	0x3e76666a	0.24062505
53	0x3dc02446	0.093819186
54	0x3d95ddc6	0.073176906
55	0xbcf5e7cd	-0.030017758
56	0xbd47f416	-0.048816763
57	0xbd97bd9d	-0.07409213
58	0xbe297acf	-0.16550754
59	0xbe114b89	-0.1418897
60	0x3ca413b0	0.020028919
61	0x3c5a73cf	0.013333275
62	0xbe352e1e	-0.17693374
63	0xbdaf312e	-0.08554302
64	0xbd8867e5	-0.06660441
65	0xbddf554b	-0.1090494

module.feature_extraction.encoder5.0.dwconv_h.bias f4 [6]
0	0x3cbdc87b	0.023166886
1	0xbca3299c	-0.019917302
2	0xbcaf813c	-0.021423928
3	0x3d967951	0.07347358
4	0xbd4b9070	-0.049698293
5	0xbc098ade	-0.008394925

module.feature_extraction.encoder6.0.channel_adj.weight f4 [64, 48, 1, 1]
0	0xbdda6e94	-0.10665622
1	0xbd9236d0	-0.07139361
2	0xbe1aae15	-0.1510547
3	0x3d57a57f	0.052648064
4	0x3cb29436	0.021799188
5	0x3ebd6ac9	0.36995533
6	0x3c9c4fb8	0.019080982
7	0x3d10eaaf	0.03538006
8	0x3db76afa	0.08955951
9	0x3e472cc6	0.19450673
10	0xbb6e74a3	-0.003638544
11	0x3e6305bd	0.22170158
12	0x3d8285bf	0.06373166
13	0x3c8a72df	0.016900478
14	0xbc319de8	-0.01084087
15	0xbe90b2a1	-0.28261283
16	0xbca8a8c3	-0.020588284
17	0x3d8addbf	0.06780576
18	0x3cbaad8e	0.022787835
19	0x3ea5988d	0.3234295
20	0xbe91f879	-0.28509882
21	0xbe8996ce	-0.26872867
22	0x3e4e1fa0	0.20129251
23	0x3d106119	0.03524885
24	0xbd5944a9	-0.053043995
25	0x3df53aad	0.11974082
26	0xbe1015ec	-0.14070863
27	0x3e6ad4f9	0.22932805
28	0x3d8d9e77	0.069149904
29	0x3db8e02b	0.09027132
30	0xbe52e5b9	-0.20595445
31	0x3e2b308c	0.16717738
32	0xbdb8fa17	-0.09032076
33	0x3d39be03	0.045347225
34	0xbe4de08b	-0.20105188
35	0xbbcc9a4c	-0.0062439796
36	0x3d616105	0.055024166
37	0x3d569f35	0.052397925
38	0x3df570f3	0.11984434
39	0xbeb52c82	-0.3538552
40	0xbe7cc7b6	-0.24685559
41	0xbc03b0ee	-0.008037789
42	0x3dae53c9	0.085120745
43	0x3dfb0a75	0.12257854
44	0xbe548811	-0.2075503
45	0xbd89cfe5	-0.06729106
46	0x3dea44eb	0.11438926
47	0xbd927014	-0.071502835
48	0xbe691cf2	-0.22764948
49	0x3ccbd041	0.024879577
50	0xbe9eb355	-0.30996194
51	0xb9fef56e	-0.00048629515
52	0xbe8006ba	-0.25005132
53	0xbeed4b48	-0.46346498
54	0x3c3d70a1	0.011562497
55	0xbe5555a8	-0.20833457
56	0x3e0b5582	0.13606837
57	0x3e684a9c	0.22684711
58	0xbd127b39	-0.035762046
59	0xbc83584a	-0.01603331
60	0xbe5e7977	-0.21726023
61	0x3da6081f	0.08107018
62	0x3df668b7	0.120316915
63	0xbdd46982	-0.103716865
64	0xbd0c3431	-0.03422946
65	0xbe844055	-0.2583033
66	0xbdbc93bf	-0.09207868
67	0xbb2e82ab	-0.0026628177
68	0xbd3cf5c0	-0.046132803
69	0xbcdec279	-0.027192341
70	0x3e683336	0.22675785
71	0xbf157998	-0.5838866
72	0xbee692b1	-0.45033792
73	0xbe8c7744	-0.27434742
74	0x3bb99125	0.0056630545
75	0xbf1bd2d4	-0.60868573
76	0x3e447e82	0.19188884
77	0xbcc9454c	-0.024569176
78	0xbe930f74	-0.28722727
79	0x3ee26f52	0.44225556
80	0x3cd1873c	0.02557718
81	0x3da3e601	0.08002854
82	0x3d6e59e6	0.058191203
83	0xbe80bdc0	-0.25144768
84	0xbe12f401	-0.14350893
85	0xbdbda6a4	-0.092603
86	0x3e04e823	0.12979178
87	0xbe3318a3	-0.17489867
88	0xbeff474e	-0.4985909
89	0xbd4749b8	-0.048654288
90	0xbc9bcce8	-0.019018605
91	0xbe2f010b	-0.17090242
92	0x3b9e448e	0.0048299497
93	0xbddf6e57	-0.109097175
94	0x3d7cd1f2	0.061723657
95	0x3d3ba03d	0.045807112
96	0x3e79391f	0.24338196
97	0xbd7367cc	-0.05942516
98	0x3da5e938	0.081011236
99	0xbd55bc38	-0.052181453
100	0x3df0d220	0.11758828
101	0x3e154c60	0.14579916
102	0xbea32ef3	-0.31871757
103	0x3e159964	0.14609295
104	0xbe3c0eb6	-0.18364987
105	0x3dd9c79b	0.10633775
106	0xbe433bdd	-0.19065805
107	0x3e7f19fc	0.24912256
108	0xbde89392	-0.11356272
109	0xbd14c1ef	-0.036317762
110	0x3e8851c9	0.26624897
111	0xbe127919	-0.14304008
112	0xbcb01102	-0.021492485
113	0x3d97750d	0.073953725
114	0xbea0dd2b	-0.31418738
115	0x3e9cc93f	0.3062229
116	0x3e044ddd	0.12920327
117	0x3ca2188d	0.019787097
118	0xbea29481	-0.31753924
119	0xbde21fe9	-0.11041243
120	0xbe3a186d	-0.1817338
121	0x3dee93f4	0.116493136
122	0xbd854d42	-0.065088764
123	0x3ba92df2	0.005162948
124	0x3e0705b1	0.13185765
125	0x3d2ec4be	0.042668097
126	0xbb8c23c7	-0.004276726
127	0x3df0f379	0.11765189
128	0x3e958f13	0.2921072
129	0xbeb86018	-0.36010814
130	0x3cf43083	0.029808288
131	0x3e424127	0.18970166
132	0x3e5f0b23	0.21781592
133	0xbe5bdf4a	-0.21471897
134	0x3cf5515a	0.029946018
135	0x3d1707dd	0.036872733
136	0xbde489e2	-0.111591116
137	0xbe54e412	-0.20790127
138	0xbddfaaa5	-0.1092122
139	0xbe2851ed	-0.16437502
140	0x3e883580	0.26603317
141	0x3e264acd	0.16239472
142	0xbdf15914	-0.117845684
143	0xbd94ef35	-0.072721876
144	0xbd4ba767	-0.049720194
145	0x3d188f46	0.03724601
146	0xbdf1a9e5	-0.11799983
147	0xbdb82678	-0.08991712
148	0xbe4693bb	-0.19392292
149	0xbec0f708	-0.3768847
150	0xbda5cd48	-0.08095795
151	0xbe7be7c0	-0.24600124
152	0x3e7aacc1	0.24479963
153	0xbea455eb	-0.320968
154	0xbd75b7b9	-0.059989665
155	0xbf08db4a	-0.5345961
156	0x3dacd67b	0.084393464
157	0x3e05dd39	0.13072671
158	0xbe11d20f	-0.14240287
159	0x3e83184c	0.25604475
160	0xbe123ef6	-0.1428183
161	0xbd31ea9d	-0.043436635
162	0x3e0358af	0.12826799
163	0xbeb7a706	-0.35869616
164	0x3e7701c4	0.24121767
165	0x3b99c795	0.0046929815
166	0x3d8b9ab5	0.068166174
167	0xbed358f6	-0.4127881
168	0x3ddaa33b	0.10675665
169	0xbd2e8e1b	-0.04261599
170	0x3d1f3231	0.038866226
171	0xbe837deb	-0.25682005
172	0xbb0e3f15	-0.002170508
173	0xbe5cf1cb	-0.21576612
174	0x3d948345	0.072516
175	0xbe57e66d	-0.21083994
176	0xbf02b016	-0.51049936
177	0x3e126c0a	0.14299026
178	0xbde2c343	-0.110723995
179	0x3bbc0c3d	0.0057387636
180	0x3d96f351	0.07370628
181	0x3d771d22	0.060330518
182	0xbeb642a3	-0.35597715
183	0x3d83f423	0.0644305
184	0x3b600682	0.0034183566
185	0xbe1d99f8	-0.15390766
186	0x3df68d0c	0.12038621
187	0xbe1c57c5	-0.15267856
188	0x3e2b5db6	0.16734967
189	0xbe2e9496	-0.17048869
190	0x3d405aec	0.04696171
191	0xbe40d5ed	-0.18831606
192	0xbc1aae33	-0.009440946
193	0xbd79d2d7	-0.06099209
194	0xbe49b3c0	-0.19697475
195	0x3e7e0389	0.24806036
196	0xbeaea36c	-0.34109056
197	0x3e088a03	0.13333897
198	0xbdf00559	-0.1171977
199	0x3e212150	0.15735364
200	0x3c10da39	0.008841091
201	0x3e55d17e	0.20880696
202	0x3ca91642	0.020640496
203	0xbd15687e	-0.036476605
204	0xbeb13fd7	-0.34619018
205	0xbd5ae4e8	-0.05344096
206	0x3e3fd661	0.18734123
207	0xbd57bf25	-0.052672524
208	0x3def6ef3	0.11691084
209	0x3cd3e62d	0.025866592
210	0xbe177496	-0.14790568
211	0xbe6ebda7	-0.23314534
212	0xbed4878a	-0.41509658
213	0x3d768890	0.06018883
214	0x3d5b5044	0.053543344
215	0x3da1e662	0.0790527
216	0xbe3c3be1	-0.18382217
217	0xbe61a166	-0.22034225
218	0xbc0f8b0a	-0.008761177
219	0x3e1d25f6	0.15346512
220	0x3d20dac6	0.03927114
221	0x3d2cebc0	0.042217016
222	0xbe219d31	-0.1578262
223	0x3d19bfdb	0.037536483
224	0x3e4dcc0a	0.20097366
225	0x3df4ce51	0.11953414
226	0x3e4d74d8	0.20064104
227	0xbec01cc7	-0.37521955
228	0xbe37ff13	-0.17968397
229	0x3d42c9f0	0.047555864
230	0xbd7a2807	-0.06107333
231	0x3da6c2fc	0.08142659
232	0xbe4fbd4c	-0.20287055
233	0xbbbea8fc	-0.0058184844
234	0xbe1237f1	-0.14279152
235	0x3eaedd78	0.34153342
236	0xbccb5c29	-0.024824219
237	0x3ebb3198	0.36561275
238	0x3e41847e	0.18898198
239	0x3a40d0a1	0.0007355307
240	0xbe840ac3	-0.2578946
241	0xbd74170f	-0.059592303
242	0xbe37379e	-0.1789231
243	0x3e29b4d5	0.16572888
244	0xbe28f7d2	-0.16500786
245	0x3da87a60	0.08226466
246	0x3d0d355b	0.034474712
247	0xbeac34c5	-0.3363401
248	0xbd84b9fe	-0.06480788
249	0x3dfc3ce4	0.123163015
250	0xbdeed8a4	-0.11662415
251	0x3be35c7c	0.006938515
252	0xbe15a8bf	-0.14615153
253	0xbd6c463d	-0.057684172
254	0xbe98dae9	-0.29854515
255	0xbf39e236	-0.72610795

module.feature_extraction.encoder6.0.channel_adj.bias f4 [64]
0	0x3c207b26	0.009794986
1	0x3e6e598b	0.23276345
2	0x3cfb666a	0.030688483
3	0x3e3cc4e0	0.18434477
4	0x3d0889cf	0.03333455
5	0x3df6cb60	0.120505095
6	0x3e149aa7	0.1451212
7	0xbd661b45	-0.05617835
8	0xbbe28768	-0.0069131143
9	0x3e1a62e5	0.15076788
10	0x3bf16c5d	0.0073676542
11	0x3d36c045	0.044616956
12	0x3d688c76	0.05677458
13	0x3c12e2b8	0.008965187
14	0xbd8caad9	-0.06868524
15	0xbcc35218	-0.023842856
16	0x3db4a901	0.088212974
17	0xbc84ac37	-0.0161954
18	0x3d84137c	0.06449029
19	0xbc3dfbb2	-0.011595653
20	0x3d9506ef	0.07276713
21	0xbbcb25ec	-0.006199589
22	0xbbc49cb3	-0.0060001253
23	0x3cd248a3	0.025669402
24	0xbd339c25	-0.043850083
25	0x3cb680f6	0.02227829
26	0x39728b7e	0.00023130883
27	0x3dfa3aed	0.122182705
28	0x3b9df7dc	0.004820807
29	0x3c51cdea	0.012805441
30	0xbc3c4ee9	-0.011493423
31	0x3d5034a7	0.050831463
32	0xbd0b18b6	-0.033959113
33	0xbdc39bfe	-0.095512375
34	0x3da17e9b	0.07885476
35	0x3de3a2b5	0.11115018
36	0xbc7716a6	-0.015081083
37	0x3d3c2595	0.04593428
38	0xbe18b7ff	-0.14913939
39	0x3aa6fdc8	0.0012740428
40	0x3de86196	0.11346738
41	0xbc51c78a	-0.0128039215
42	0x3e595a76	0.21225914
43	0x3d436459	0.04770312
44	0x3dded5c8	0.10880619
45	0xbd15c2cc	-0.036562726
46	0x3b89b9e0	0.004203066
47	0x3d808103	0.06274607
48	0xbea601ed	-0.32423344
49	0x3d3d4c30	0.046215236
50	0x3db6631e	0.08905624
51	0xbd1b8d49	-0.037976537
52	0x3d81f55b	0.06345626
53	0xbd6371a6	-0.055528305
54	0xbd8c9439	-0.06864209
55	0x3d4e3fba	0.050353743
56	0x3c5c313a	0.013439471
57	0xbd789b18	-0.060694784
58	0x3cc57110	0.024101764
59	0x3cbe94cc	0.023264311
60	0x3c217aef	0.00985597
61	0x3e19d1aa	0.15021387
62	0xbea7aed6	-0.32750577
63	0x3db6ff5c	0.08935425
